Data/Calibrated_models/best_model.pth (torch, 17071 bytes, 5 tensors)

fc1.weight f4 [64, 24]
0	0xbead5801	-0.33856204
1	0xbda89c8b	-0.08232983
2	0x3e422995	0.18961175
3	0xbdc49fe9	-0.09600813
4	0x3e38a562	0.18031839
5	0xbe487dd7	-0.19579254
6	0xbd1b13f9	-0.037860844
7	0xbd393202	-0.045213707
8	0x3c391afb	0.011297937
9	0xbd3329e0	-0.043741107
10	0xbd5cd04b	-0.05390958
11	0x3b773e0b	0.003772619
12	0xbdbf357f	-0.093363754
13	0xbdfc3fb3	-0.12316837
14	0x3ca7efe5	0.020500133
15	0x3de15638	0.11002773
16	0x3cb209ae	0.021733131
17	0x3e12e357	0.14344536
18	0x3e1503e6	0.14552268
19	0xbd09018a	-0.033448733
20	0xbe3d8a30	-0.18509746
21	0xba02f95b	-0.00049962633
22	0x3e4d3f80	0.20043755
23	0xbd22c9a3	-0.039743077
24	0xbdeaa4fc	-0.114572495
25	0x3c571381	0.013127209
26	0xba1a0e02	-0.0005876721
27	0x3e001aac	0.12510175
28	0x3e3854d5	0.18001111
29	0xbd9743bf	-0.073859684
30	0x3dbe7103	0.09298899
31	0xbde03625	-0.10947827
32	0xbcfb734e	-0.03069463
33	0xbaf57b38	-0.0018728739
34	0x3df1c2b5	0.118047155
35	0x3dbae81a	0.09126301
36	0xbc88eb11	-0.01671365
37	0x3d325536	0.043538295
38	0xbcf7cc01	-0.030248644
39	0x3e70a98f	0.23502181
40	0x3d500c1f	0.05079281
41	0xbdf6fc67	-0.12059861
42	0xbc619a27	-0.013769663
43	0x3e246d76	0.16057381
44	0xbd9a2e70	-0.075283885
45	0x3c28ec6e	0.0103102755
46	0xbe2a339a	-0.16621247
47	0x3d85743c	0.065163106
48	0xbe281dfd	-0.1641769
49	0xbe7464d0	-0.23866582
50	0xbc17e08c	-0.009269845
51	0xbdaca593	-0.08430018
52	0x3cc51ac9	0.024060624
53	0x3dc6e57e	0.09711741
54	0xbc57b4df	-0.013165682
55	0x3e113ffd	0.14184566
56	0xbc85622f	-0.01628217
57	0x3d826acb	0.063680254
58	0x3d6fb86c	0.058525488
59	0x3df5e965	0.12007407
60	0x3d2da46f	0.042393144
61	0x3c38c863	0.011278245
62	0xbde8baa6	-0.11363725
63	0xbe4c868b	-0.19973199
64	0x3d88bdee	0.06676851
65	0x3c177c37	0.009245924
66	0xbd147a1c	-0.036249265
67	0x3d6683c1	0.056277994
68	0xbabd8c68	-0.00144614
69	0x3ca5f76b	0.02025958
70	0x3dd27f0a	0.10278137
71	0x3d968861	0.07350231
72	0xbca58e63	-0.020209497
73	0xbe1c0bc5	-0.15238865
74	0xbe13679a	-0.1439499
75	0xbe6194c3	-0.22029404
76	0xbd1ad988	-0.03780511
77	0xbcf52be1	-0.02992815
78	0x3e3d69de	0.18497416
79	0xbc763c51	-0.015029029
80	0xbd3616f7	-0.044455495
81	0xbd2cfbae	-0.042232208
82	0xbd9c9d7e	-0.07647227
83	0xbd3d7b9d	-0.046260465
84	0x3db002b6	0.08594267
85	0xbddd771d	-0.10813735
86	0xbd027e70	-0.03185886
87	0x3dea8798	0.11451644
88	0xbdbb1132	-0.09134139
89	0x3dfe45e0	0.12415671
90	0x3d8c72f4	0.06857863
91	0x3c1aea41	0.009455265
92	0x3dbd25aa	0.092356995
93	0xbd91caee	-0.07118784
94	0xbc9ab935	-0.018887142
95	0x3e137251	0.14399077
96	0xbe71e939	-0.23624124
97	0xbe0f2efe	-0.1398277
98	0xbe64b6e8	-0.22335398
99	0x3e0e1254	0.13874179
100	0xbe21b310	-0.15790963
101	0xbe739a24	-0.23789269
102	0xbe82649b	-0.2546738
103	0x3db43feb	0.08801254
104	0x3c9098d0	0.017650992
105	0xbe62d04b	-0.2214977
106	0x3d335cfe	0.043789856
107	0xbdcd82bf	-0.100347035
108	0xbc5abcd1	-0.013350681
109	0xbe12d109	-0.14337553
110	0xbe3ca88b	-0.18423669
111	0x3dd0a4b5	0.101876654
112	0xbda6c078	-0.08142179
113	0x3d1957d2	0.037437268
114	0x3e170321	0.14747287
115	0xbdd4a9eb	-0.10383972
116	0xbe0be486	-0.13661394
117	0x3c1e6042	0.009666504
118	0x3d20f88b	0.03929953
119	0x3e0bf2ac	0.1366679
120	0xbcc00f71	-0.023444863
121	0x3dea23a8	0.11432582
122	0x3deb1411	0.11478437
123	0xbd06ee7a	-0.032942273
124	0x3ddbd313	0.107336186
125	0xbcb515e0	-0.022105157
126	0x3df9cdda	0.12197466
127	0xbe318e4a	-0.17339435
128	0xbd809dae	-0.06280075
129	0x3cee2d43	0.029074317
130	0x3e57f15c	0.21088165
131	0xbb820f4e	-0.0039691096
132	0xbd09bffe	-0.033630364
133	0xbd882c47	-0.0664907
134	0xbdc6c158	-0.09704846
135	0x3e4ff9ae	0.20310089
136	0x3d1e7c36	0.038692676
137	0x3bbdd716	0.0057934625
138	0xbd0ef9cb	-0.03490619
139	0x3e087696	0.13326487
140	0x3e0b420f	0.13599418
141	0x3e0961f8	0.13416278
142	0x3b114da7	0.0022171529
143	0xbe15ddb6	-0.14635357
144	0xbdb7cb7f	-0.08974361
145	0xbd40ec01	-0.04710007
146	0xbcee922f	-0.02912244
147	0xbdc4d25b	-0.096104346
148	0x3e5843ea	0.21119657
149	0xbd66372d	-0.056204963
150	0x3e60c759	0.21951045
151	0xbd6eb5df	-0.058278915
152	0xbd93f33d	-0.072241284
153	0x3d718d45	0.058972616
154	0xbdaf35ee	-0.08555208
155	0xbdc21bbb	-0.094779454
156	0xbd50b3bf	-0.05095267
157	0xbdc5b432	-0.0965351
158	0xbe16a931	-0.14712979
159	0x3cf0fb36	0.029416662
160	0x3e1df203	0.15424351
161	0x3cc2bd7d	0.023771996
162	0xbe18975c	-0.14901489
163	0x3df3df66	0.11907844
164	0x3d783387	0.060596015
165	0xbe21bc64	-0.15794522
166	0xbcf33cba	-0.029692043
167	0xbd4b36c0	-0.04961276
168	0x3de33d86	0.11095719
169	0xbe121a01	-0.14267732
170	0xbe829d94	-0.25510848
171	0xbd88f1d2	-0.066867486
172	0xbd09dc12	-0.03365714
173	0xbe8850ce	-0.2662415
174	0x3da67a57	0.08128803
175	0xbdd29232	-0.10281791
176	0x3d416f82	0.047225483
177	0x3cc3e3a4	0.023912258
178	0x3e57b786	0.21066102
179	0x3c186b43	0.009302917
180	0x3dbe6a1f	0.09297585
181	0xbd9cb3f9	-0.076515146
182	0x3dcd6383	0.10028746
183	0x3dcaca68	0.09901887
184	0x3e53536d	0.20637293
185	0x3d5cfe62	0.053953536
186	0xbdcd97b0	-0.10038698
187	0x3e501eb0	0.20324206
188	0x3dee51f6	0.116367266
189	0x3d2377ee	0.039909296
190	0xbb5c5f72	-0.0033626226
191	0x3e2116ba	0.15731326
192	0xbea090e9	-0.31360558
193	0x3dfa3482	0.12217046
194	0xbd64bbb3	-0.055843066
195	0x3df6e13d	0.120546795
196	0x3d9a859d	0.07545016
197	0xbdcbf485	-0.09958748
198	0xbd81090a	-0.06300552
199	0x3dc1e5da	0.09467669
200	0x3d764ead	0.060133625
201	0x3c87f528	0.016596392
202	0xbd3aeea4	-0.04563774
203	0xbda1d8b3	-0.0790266
204	0x3da4597f	0.080248825
205	0xbdab031d	-0.08350203
206	0xbd0a9cd1	-0.033840958
207	0xbd9f44af	-0.07776772
208	0xbce5d25d	-0.02805441
209	0x3e1e906e	0.15484783
210	0xbd6ee1dc	-0.058320865
211	0x3de3ed84	0.11129287
212	0x3d9a3ae5	0.075307645
213	0x3d8604e7	0.06543904
214	0xbd01660d	-0.031591464
215	0xbcd92cde	-0.026510652
216	0xbd53a81a	-0.051673986
217	0x3e607e9c	0.21923298
218	0x3b6c4d7b	0.0036056924
219	0xbc711d49	-0.014716455
220	0xbe677921	-0.22604801
221	0x3dd300db	0.103028975
222	0xbe229d7e	-0.15880391
223	0xbe09d52c	-0.13460225
224	0xbd99489e	-0.07484554
225	0x3dece5ae	0.115672454
226	0x3ebf0ad0	0.37312937
227	0xbd0a8b47	-0.03382423
228	0x3ce93ffc	0.028472893
229	0xbdc6db23	-0.09709766
230	0xbd5d9f3d	-0.05410694
231	0x3e533c83	0.20628552
232	0xbe0d63b6	-0.13807568
233	0xbe5d88da	-0.21634236
234	0x3d80a485	0.062813796
235	0xbd5050cb	-0.0508583
236	0x3d9255b7	0.07145255
237	0xbb1b5479	-0.0023701473
238	0xbdab7fe5	-0.08374003
239	0x3d6202fc	0.055178627
240	0x3c79e239	0.01525169
241	0x3dd22b13	0.10262122
242	0xbdc4d428	-0.09610778
243	0x3dcc1cd4	0.09966436
244	0xbe02a513	-0.12758283
245	0x3dd2ff01	0.103025444
246	0x3e46eb29	0.19425644
247	0xbe28516d	-0.16437311
248	0xbd92efdc	-0.07174656
249	0x3e0b4aa7	0.13602696
250	0x3e8840c6	0.26611918
251	0xbb7fe78f	-0.0039047932
252	0x3d6ec85c	0.058296546
253	0x3d8b4d5a	0.06801863
254	0xbde77cce	-0.113031015
255	0x3d8cf190	0.06882012

fc1.bias f4 [64]
0	0xbe072a27	-0.13199674
1	0xbd82581b	-0.06364461
2	0xbe818fa2	-0.25304896
3	0x3d04a0c3	0.032379877
4	0xbe616df1	-0.22014596
5	0xbe012859	-0.12613048
6	0x3e1ed1b2	0.1550968
7	0xbed83d4c	-0.42234266
8	0x3e781b2d	0.24229117
9	0xbe62bc79	-0.22142209
10	0x3e0833a4	0.1330095
11	0x3e2e89a6	0.17044696
12	0xbe06e1c8	-0.13172066
13	0x3d84cd95	0.06484524
14	0x3d5ccee2	0.053908236
15	0x3d87260e	0.06599055
16	0x3ddee074	0.10882655
17	0x3dfe0ee7	0.12405186
18	0xbde616b5	-0.112348
19	0xbdbdf6af	-0.09275567
20	0xbe0dc173	-0.13843326
21	0x3de4d7b1	0.11173952
22	0x3cc0227d	0.023453945
23	0x3e0bc234	0.13648301
24	0xbe309624	-0.17244774
25	0xbdd3f111	-0.10348714
26	0x3e3c05f6	0.18361649
27	0x3d48eada	0.049052097
28	0xbdb1a109	-0.08673293
29	0x3de8a49b	0.11359521
30	0x3c6bc39c	0.014389899
31	0xbe5c277b	-0.21499436
32	0x3e22994c	0.1587879
33	0x3d59e6ff	0.05319881
34	0xbcc3fd1b	-0.023924401
35	0xbcf86352	-0.030320797
36	0x3e4c2f90	0.19940019
37	0x3da1d545	0.07902006
38	0xbc9edf1e	-0.0193935
39	0xbdde2ce5	-0.10848407
40	0xbe0da3a3	-0.13831954
41	0x3d254ce3	0.040356528
42	0x3dcb5362	0.099280134
43	0x3e0a5620	0.13509417
44	0xbd33f8ee	-0.04393857
45	0xbe39b910	-0.18137002
46	0x3d974607	0.073864035
47	0xbea0e06b	-0.31421217
48	0xbe40904c	-0.18805045
49	0x3dfa398f	0.1221801
50	0x3db41fd4	0.08795133
51	0x3d02ead4	0.03196223
52	0xbe00834c	-0.12550086
53	0xbc872af6	-0.016499978
54	0xbe18c159	-0.14917506
55	0xbeb838bc	-0.35980785
56	0xbd406c85	-0.046978492
57	0xbddf1a73	-0.10893717
58	0xbe5646cd	-0.20925446
59	0xbe79991b	-0.24374811
60	0x3e084921	0.13309146
61	0xbd954b99	-0.0728981
62	0xbe7ff3a2	-0.24995282
63	0x3d91cc09	0.07118995

fc2.weight f4 [32, 64]
0	0x3dc5b0ce	0.096528634
1	0x3da5eac3	0.08101418
2	0x3c5b8b26	0.013399875
3	0x3cf16f32	0.029471967
4	0x3d391ea9	0.045195255
5	0xbd9ae24d	-0.07562695
6	0x3cddfba0	0.027097523
7	0xbe30f8f5	-0.1728247
8	0x3dbe9934	0.09306565
9	0x3deaf9ae	0.11473404
10	0x3cf6d3a8	0.030130222
11	0xbd2b98d6	-0.041893803
12	0x3dca8fdb	0.098907195
13	0x3e06e979	0.13175
14	0x3dab18d0	0.08354342
15	0x3c5a3938	0.013319306
16	0x3cf754b1	0.030191751
17	0x3dd7df3c	0.105406255
18	0xbc5c0571	-0.013429032
19	0xbb8be724	-0.0042694975
20	0xbb8013d3	-0.003908613
21	0x3d6639ba	0.056207396
22	0x3aa8afbc	0.0012869756
23	0xbcf07409	-0.029352205
24	0x3dc5559a	0.09635468
25	0xbdff1fe8	-0.124572575
26	0x3cf347a8	0.029697254
27	0x3dc3e940	0.09565973
28	0x3d9e24ef	0.07721888
29	0xbd083496	-0.033253275
30	0xbdd45328	-0.10367423
31	0xbb89b88d	-0.0042029084
32	0x3c161063	0.00915918
33	0x3dd2f627	0.10300856
34	0x3e229ffe	0.15881345
35	0x3dad320d	0.08456812
36	0x3d50d7f2	0.05098719
37	0x3e020399	0.12696685
38	0xbc69b526	-0.014264381
39	0x3e5498e4	0.20761448
40	0x3c5320d8	0.0128862485
41	0xbd1c238b	-0.038119834
42	0x3ce47852	0.027889404
43	0x3dd79a5f	0.10527491
44	0x3dea32b9	0.11435456
45	0x3d70b4a6	0.05876603
46	0x3d9a3f1e	0.0753157
47	0xbe224805	-0.15847786
48	0x3d28fb99	0.041255567
49	0xbcdf19b3	-0.027233934
50	0x3c8a3fbe	0.016876098
51	0x3d7fef25	0.062483925
52	0x3c364496	0.011124751
53	0x3deff3f6	0.11716454
54	0xbd78e73d	-0.0607674
55	0xbe4e4323	-0.20142798
56	0x3d8a913f	0.06765985
57	0x3dd57e6c	0.10424504
58	0x3d81af66	0.06332283
59	0x3d63f589	0.055654082
60	0x3da73f13	0.08166327
61	0x3e056986	0.13028535
62	0x3d122109	0.035676036
63	0xbd8668e7	-0.06562977
64	0x3df90503	0.12159159
65	0xbcb47bdd	-0.022031719
66	0x3df13690	0.11777985
67	0xbdaac26e	-0.08337866
68	0x3cbd2e52	0.023093376
69	0x3c9bb955	0.019009272
70	0xbccd07a3	-0.025028056
71	0xbd85b62b	-0.065288864
72	0xbd5c67da	-0.053809978
73	0x3d01ad44	0.03165938
74	0x3de7cf19	0.113187976
75	0x3e00b637	0.1256951
76	0xbd0d58bd	-0.034508456
77	0x3db4a366	0.08820228
78	0x3d32afcc	0.043624684
79	0x3e066623	0.131249
80	0x3d24763e	0.040151827
81	0xbd835be6	-0.064140126
82	0x3d17630c	0.036959693
83	0xbcc24670	-0.023715228
84	0x3cd86dfb	0.02641963
85	0x3cb7c7bf	0.022434114
86	0xbdada28b	-0.08478268
87	0x3d969eae	0.073544845
88	0x3d0390d6	0.03212055
89	0xbda3997e	-0.07988261
90	0xbcd2997f	-0.025707958
91	0x3db4c14e	0.088259324
92	0x3c83a2e7	0.016068889
93	0x3d4498d2	0.047997303
94	0xbb67ccd9	-0.0035369901
95	0x3c58eeda	0.01324054
96	0x3c991faf	0.018691866
97	0x3cfb73ca	0.030694861
98	0x3e072704	0.13198477
99	0xbc4fd66c	-0.0126853995
100	0x3daa68ff	0.08320808
101	0x3c699242	0.014256062
102	0x3c8f8589	0.01751973
103	0xbd8cd676	-0.06876843
104	0x3db1a78c	0.08674535
105	0x3c509c66	0.012732601
106	0x3dbac751	0.09120048
107	0x3d3d894d	0.04627352
108	0xbd70a815	-0.058754046
109	0x3d98a46e	0.074532375
110	0xbd47a549	-0.048741613
111	0xbe450cdb	-0.19243185
112	0x3d974b6f	0.07387435
113	0xbd4a4bc2	-0.049388655
114	0xbcb086fa	-0.021548737
115	0xbd5247bf	-0.051337954
116	0x3dc95ad7	0.098317795
117	0x3de05bc7	0.10955005
118	0x3dbd829b	0.09253427
119	0xbe368fc4	-0.1782828
120	0x3d86e4ea	0.06586631
121	0xbcddd8d2	-0.027080927
122	0x3e1f43fa	0.15553275
123	0x3d99896f	0.074969165
124	0x3dbe34aa	0.092873886
125	0x3d7ace3e	0.061231844
126	0x3da89b41	0.08232737
127	0x3d9e8ebd	0.07742069
128	0x3e073c1c	0.13206524
129	0xbdab5d91	-0.08367456
130	0x3c524a47	0.012835092
131	0xbcc42030	-0.02394113
132	0x3df4b12b	0.119478546
133	0xbd63338b	-0.055469077
134	0xbcdb67bc	-0.026782863
135	0xbd993508	-0.07480818
136	0x3d2128ce	0.039345555
137	0xbd95e524	-0.07319096
138	0x3d87f58f	0.066386335
139	0x3db725f9	0.089427896
140	0x3d97f533	0.07419815
141	0xbd5f3d92	-0.054502077
142	0xbd6c7b70	-0.057734907
143	0x3df0ab1c	0.117513865
144	0xbce5eb8b	-0.028066417
145	0xbb99f451	-0.0046983142
146	0xbdc04cab	-0.09389623
147	0xbd3e3659	-0.04643855
148	0x3dce5d24	0.10076359
149	0x3de39f43	0.11114361
150	0x3c50d360	0.012745708
151	0x3ca9e20a	0.020737667
152	0x3e0a718e	0.1351988
153	0xbd74e1c5	-0.059785623
154	0x3d281eac	0.041044876
155	0xbd86fefa	-0.06591602
156	0x3cee390f	0.029079942
157	0x3dcad763	0.09904363
158	0x3d8bde64	0.06829527
159	0x3e12fd33	0.143544
160	0x3d854dc6	0.06508975
161	0x3a97a457	0.0011569363
162	0x3d8691e3	0.065707944
163	0x3c97a96d	0.018513406
164	0xbd8517b3	-0.06498661
165	0x3bd5e37e	0.0065273633
166	0xbd88c329	-0.06677849
167	0x3dd7f356	0.105444595
168	0x3d8c27e7	0.06843548
169	0x3ddfd24f	0.10928785
170	0xbcbfeb60	-0.023427665
171	0x3cabb263	0.020959085
172	0x3dd56814	0.10420242
173	0x3dde2891	0.10847581
174	0x3d0a7e9c	0.03381215
175	0xbdc9dbbf	-0.09856366
176	0xbd5c24e5	-0.053746123
177	0xbd8f4f07	-0.06997495
178	0x3d7f40bf	0.062317606
179	0x3a5490a3	0.0008108711
180	0x3d9341e6	0.071903035
181	0xbc5da60d	-0.013528359
182	0x3c466c4a	0.012110779
183	0xbd82dabd	-0.06389377
184	0xbd00f9c5	-0.0314882
185	0xbd8bd976	-0.06828587
186	0x3d925cdd	0.071466185
187	0x3dd3a141	0.10333491
188	0xbce7aaef	-0.02827975
189	0x3cf9f307	0.030511392
190	0x3d173305	0.03691389
191	0xba91b4f1	-0.0011116547
192	0xbd939e02	-0.07207872
193	0xbe0048b5	-0.12527736
194	0x3b502a3d	0.0031763457
195	0x3dab30c2	0.08358909
196	0xbd990e84	-0.07473472
197	0xbc88f085	-0.016716251
198	0xbe1063a7	-0.14100514
199	0x3e87a1e8	0.26490712
200	0x3d9875c2	0.074443355
201	0xbd7b220c	-0.061311767
202	0x3c6b6a08	0.014368542
203	0xbd1ee9a2	-0.03879703
204	0xbd95d1b8	-0.07315391
205	0xbd69897c	-0.05701588
206	0xbe0b10b9	-0.13580598
207	0x3d342c38	0.043987483
208	0xbda6051b	-0.081064425
209	0xbc174913	-0.009233731
210	0xbe0fed23	-0.14055304
211	0xbe0c0c22	-0.13676503
212	0xbb5afdce	-0.003341544
213	0xbdde80fb	-0.10864445
214	0xbd8842b2	-0.06653346
215	0xbd8751ed	-0.06607423
216	0xbe2c8dce	-0.16850969
217	0x3e2a8259	0.16651286
218	0x3d788a54	0.060678795
219	0xbd8c651f	-0.06855225
220	0xbd7afabc	-0.061274275
221	0x3c92a540	0.017901063
222	0xbcf39fd2	-0.029739294
223	0x3d7393d3	0.059467148
224	0xbd48b037	-0.048996177
225	0xbe5d6fac	-0.2162463
226	0xbdaf5958	-0.08561963
227	0xbd2b5cdb	-0.0418366
228	0xbe403a24	-0.18772179
229	0xbe4106a2	-0.18850186
230	0xbe38d1c7	-0.18048774
231	0x3b3bdb02	0.0028664474
232	0xbe1d0d45	-0.15337093
233	0xbda194e9	-0.078897305
234	0x3d1b4ad2	0.03791315
235	0xbde9fefc	-0.114255875
236	0xbe736421	-0.23768665
237	0xbc65dbce	-0.014029456
238	0xbda85035	-0.08218423
239	0x3e27171b	0.16317408
240	0xbda87688	-0.08225733
241	0xbe00d2e4	-0.12580448
242	0xbe6aecb2	-0.22941855
243	0xbe2d1670	-0.1690309
244	0xbcff3755	-0.031154314
245	0xbe0ac88b	-0.13553064
246	0xbb1b8dcc	-0.002373564
247	0x3dd19fc6	0.102355525
248	0xbd9ede88	-0.07757288
249	0xbc1fd55a	-0.009755457
250	0xbe18e7d1	-0.14932181
251	0x3d5b14dc	0.05348669
252	0xbe1610b3	-0.14654808
253	0xbe452ab4	-0.19254571
254	0x3b9fb0b6	0.0048733605
255	0x3c47137d	0.012150642

fc2.bias f4 [32]
0	0x3e9d25a5	0.30692783
1	0x3e44658a	0.19179359
2	0x3dea04a8	0.11426669
3	0x3e8903b4	0.26760638
4	0x3e5207e6	0.20510826
5	0xbcdf4504	-0.027254589
6	0x3dba34f2	0.0909213
7	0x3e84b0bb	0.25916085
8	0x3de0ad18	0.10970515
9	0x3e9b1cd5	0.30295435
10	0x3e391504	0.18074423
11	0x3eb0e439	0.3454912
12	0x3ea62c84	0.32455838
13	0x3eb3bfc7	0.35107252
14	0x3e48cdf2	0.19609812
15	0x3d8cf792	0.06883158
16	0x3e68f7fc	0.22750849
17	0x3ea05911	0.31317952
18	0x3ddccae3	0.10780885
19	0x3e2d79f8	0.16941059
20	0x3e47fcb7	0.19529997
21	0x3e19ca5b	0.15018599
22	0x3e896fd4	0.2684313
23	0x3e90be5f	0.28270242
24	0x3e82b292	0.25526863
25	0x3dd52b76	0.1040868
26	0x3e699215	0.22809632
27	0x3ea2bdfa	0.31785566
28	0x3e87c919	0.26520613
29	0x3e55f106	0.20892724
30	0x3e53e454	0.20692569
31	0x3e8e4209	0.27784756

fc3.weight f4 [1, 32]
0	0xbdbc64c4	-0.09198907
1	0xbe04e877	-0.12979303
2	0xbe24aaf1	-0.16080834
3	0x3e8933a8	0.26797223
4	0xbdcfc5d3	-0.10145154
5	0x3d66e68b	0.056372207
6	0x3e5d2399	0.2159561
7	0xbdbc13d4	-0.091834694
8	0xbe0351d1	-0.12824179
9	0xbd4bdb10	-0.04976946
10	0xbddeb720	-0.10874772
11	0xbdc80498	-0.09766501
12	0x3eb3407c	0.35010135
13	0xbdd07d02	-0.10180093
14	0xbd8d6125	-0.069032945
15	0xbdfe31fc	-0.124118775
16	0xbda88ed4	-0.08230367
17	0x3ebeff64	0.37304223
18	0xbd8f62fd	-0.070013024
19	0xbda0a457	-0.07843845
20	0xbd980729	-0.07423241
21	0xbdb375ff	-0.0876274
22	0xbdb42dd7	-0.08797806
23	0xbdb56a82	-0.088582054
24	0x3ec2b7ba	0.38030797
25	0xbdcd9ac5	-0.100392856
26	0xbdb44999	-0.088031
27	0xbdb3c664	-0.087780744
28	0xbdbd748c	-0.09250745
29	0xbd9d27a6	-0.07673578
30	0x3e36b71c	0.17843288
31	0xbdb2b7af	-0.08726441
