Data/Calibrated_models/ensemble_model_V0.pth (torch, 13609 bytes, 13 tensors)

fc1.weight f4 [32, 24]
2.112221 -0.8863492 0.2031772 -0.6488222 -0.59376067 -0.17698091 0.77693963 0.15679362
-0.8408619 -0.58418745 0.31827697 -0.09644788 -0.46391654 0.16187781 0.883094 -0.12713435
0.14961708 0.11054137 0.5299097 -1.2912492 0.26999605 -0.008453493 0.36204943 0.9145294
-0.16528986 0.4285611 -0.49945927 0.32954368 -0.12108876 -0.8805221 0.330612 -0.437582
1.1077018 0.19487607 1.4440508 -0.8070609 0.00027876487 -0.67187303 1.0897322 0.5495278
-0.9776448 -0.7483038 0.3216639 0.5365656 -0.39449355 -0.24513946 -0.17104371 -0.07466174
2.610943 -0.6507513 1.6563226 -0.33947808 -1.2873598 -0.08500707 -0.31511897 0.22607079
0.23983349 -0.6405443 1.0076939 0.5792766 0.8404566 0.05792707 0.8409955 1.4655424
0.80649954 0.2997988 -1.0545366 -0.095036946 -0.29211026 -0.15259412 -0.8195789 1.7498869
0.63978666 -0.52481914 0.15146686 0.66933924 -0.72835547 -0.15853801 -0.5601684 -0.92335796
0.75589937 0.8184534 0.8024405 0.8058365 -0.8218621 -0.5808207 0.502149 -0.5022689
-0.07521358 0.32754284 0.8528371 -0.80642664 0.5354422 -0.013024377 -0.18367495 0.64648056
3.1799812 -0.16845183 0.072497234 0.08812841 -0.67581 -0.424232 0.06895093 0.06619083
0.20581293 0.3878801 0.7659802 0.008821787 0.5917304 0.1638587 1.2313725 0.09868254
-0.9241763 -0.38154358 -0.061896037 0.053004976 0.17731771 0.05038444 0.36021534 0.95507044
-2.4759915 -0.05863507 0.085131146 -0.29390514 0.13008487 -1.341744 -1.249582 0.65238816
0.7799244 -1.8662969 0.7800752 -0.036831662 -0.3294329 0.12956907 -0.42415306 -0.3621366
0.71700865 0.7671242 -0.4709391 -0.7040649 -0.99720854 -0.28355783 0.29248357 0.21174398
-2.1095624 0.13492146 -0.6742658 0.57033443 0.8001234 0.55107194 -0.03204321 0.33064848
0.51832026 2.5033815 0.3314498 -1.3172271 -0.91704226 -0.9590323 -0.6673784 0.19411062
-0.4883298 0.6682797 0.047164112 0.423149 0.8654655 0.24357617 -0.74788874 -0.9591028
-3.1957095 0.019330516 0.6437378 -0.014560388 0.43119785 -0.68009776 0.20020948 0.10875692
0.21448478 -0.38019344 1.2702843 1.3447238 -0.11476772 0.34191057 -0.38596687 -0.08438354
0.392432 0.24004465 -0.059754632 -1.2976652 -0.35015112 -0.027096946 0.2845444 0.34282923
0.4158802 0.7782749 -0.39768106 0.50920767 -0.06651077 -0.78581864 1.4921317 0.8258345
0.83103955 -0.52029884 -0.25262785 -0.6315161 0.31684184 0.6727721 -0.22223043 0.6076254
0.8543058 -0.52838725 0.061525922 -0.61054283 -0.49711913 0.02256389 0.4533764 -1.1799556
-0.84580946 0.5109201 -0.057097435 1.0185814 1.1906778 -0.080412954 0.6284099 -0.0062547894
-0.2886044 -0.8285077 0.63285625 -0.8027641 -0.13209294 0.31769913 -1.0663112 0.42812896
0.5023469 -0.4094804 0.76968175 -0.50364006 1.9358416 0.100115 -0.6175725 -0.49428344
-2.1583068 0.04706349 0.4117347 0.36477432 -0.10618254 -0.504575 0.008285509 -0.4560133
0.04756492 -1.3990283 2.440226 1.6003354 -0.4095788 -0.37227702 -1.1107428 0.491254
00000000: a12e 0740 c8e7 62bf af0d 503e 3619 26bf
00000010: b300 18bf 7c3a 35be 84e5 463f 828e 203e
00000020: ba42 57bf 4f8d 15bf 33f5 a23e 7786 c5bd
00000030: 7886 edbe 4cc3 253e 7312 623f 822f 02be
00000040: 3835 193e 8463 e23d 29a8 073f a747 a5bf
00000050: ec3c 8a3e 8580 0abc 8b5e b93e 991e 6a3f
00000060: bf41 29be 5c6c db3e 20b9 ffbe f3b9 a83e
00000070: 62fd f7bd e569 61bf fa45 a93e bf0a e0be
00000080: 2cc9 8d3f 988d 473e a8d6 b83f 8b9b 4ebf
00000090: 3027 9239 dfff 2bbf 587c 8b3f dbad 0c3f
000000a0: ee46 7abf d690 3fbf 21b1 a43e 5d5c 093f
000000b0: 0ffb c9be d705 7bbe 1526 2fbe 41e8 98bd
000000c0: b119 2740 a397 26bf 6102 d43f 12d0 adbe
000000d0: 35c8 a4bf 3018 aebd 4657 a1be 1a7f 673e
000000e0: e996 753e b6fa 23bf 1dfc 803f 794b 143f
000000f0: 2a28 573f ef44 6d3d 7b4b 573f e596 bb3f
00000100: c176 4e3f 3a7f 993e 0efb 86bf bba2 c2bd
00000110: 7a8f 95be a241 1cbe eccf 51bf 4bfc df3f
00000120: 0fc9 233f 8c5a 06bf 211a 1b3e d159 2b3f
00000130: 8175 3abf ca57 22be 3267 0fbf 3061 6cbf
00000140: 9f82 413f 2986 513f be6c 4d3f 4d4b 4e3f
00000150: 8e65 52bf aab0 14bf d68c 003f b294 00bf
00000160: 9409 9abd b2b3 a73e 8853 5a3f fa71 4ebf
00000170: bd12 093f 3264 55bc 4915 3cbe c07f 253f
00000180: d084 4b40 a37e 2cbe 6e79 943d ab7c b43d
00000190: e201 2dbf f034 d9be 2536 8d3d 0f8f 873d
000001a0: a0c0 523e 3898 c63e 4717 443f 4289 103c
000001b0: a57b 173f 93ca 273e 9d9d 9d3f 121a ca3d
000001c0: d196 6cbf ae59 c3be b386 7dbd bf1b 593d
000001d0: c692 353e ea5f 4e3d 256e b83e 7f7f 743f
000001e0: a576 1ec0 542b 70bd 3d59 ae3d bc7a 96be
000001f0: f834 053e 44be abbf 4ef2 9fbf e902 273f
00000200: 20a9 473f d1e2 eebf 02b3 473f ccdc 16bd
00000210: 6eab a8be c1ad 043e 972a d9be f869 b9be
00000220: e18d 373f 4062 443f ee1e f1be 993d 34bf
00000230: 0f49 7fbf 7e2e 91be 68c0 953e 6ad3 583e
00000240: 1203 07c0 da28 0a3e af9c 2cbf 7001 123f
00000250: e3d4 4c3f 0d13 0d3f be3f 03bd c24a a93e
00000260: a3b0 043f 6737 2040 cab3 a93e e69a a8bf
00000270: 48c3 6abf 2483 75bf 50d9 2abf efc4 463e
00000280: 5d06 fabe 6114 2b3f 282f 413d fca6 d83e
00000290: 268f 5d3f 086c 793e a375 3fbf c387 75bf
000002a0: 8186 4cc0 085b 9e3c 00cc 243f b28e 6ebc
000002b0: f7c5 dc3e e31a 2ebf b703 4d3e f3bb de3d
000002c0: e6a1 5b3e b7a8 c2be ad98 a23f e91f ac3f
000002d0: 570b ebbd e70e af3e 739d c5be 47d1 acbd
000002e0: d9ec c83e 44ce 753e 46c1 74bd e519 a6bf
000002f0: 0247 b3be 6afa ddbc ceaf 913e 5087 af3e
00000300: 40ee d43e 063d 473f da9c cbbe 6f5b 023f
00000310: cc36 88bd 692b 49bf 2cfe be3f e469 533f
00000320: 02bf 543f 4e32 05bf 7058 81be 0aab 21bf
00000330: 1839 a23e cb3a 2c3f 6090 63be 578d 1b3f
00000340: c9b3 5a3f 6344 07bf 9b02 7c3d 894c 1cbf
00000350: 6686 febe e8d7 b83c f420 e83e c908 97bf
00000360: f886 58bf a9cb 023f 00df 69bd e060 823f
00000370: 2168 983f 8caf a4bd 79df 203f faf4 ccbb
00000380: f5c3 93be 1519 54bf de02 223f f381 4dbf
00000390: 5f43 07be 76a9 a23e e37c 88bf b833 db3e
000003a0: ce99 003f 6aa7 d1be dd09 453f 8eee 00bf
000003b0: a8c9 f73f 1809 cd3d 3b19 1ebf b812 fdbe
000003c0: b321 0ac0 a5c5 403d e4ce d23e b3c3 ba3e
000003d0: 3b76 d9bd d42b 01bf f2bf 073c 937a e9be
000003e0: 6fd3 423d 5c13 b3bf aa2c 1c40 cad7 cc3f
000003f0: 50b4 d1be 189b bebe d22c 8ebf a585 fb3e

fc1.bias f4 [32]
-0.0031701494 0.64043885 0.3734568 0.42155576 0.40339836 0.056242697 -0.3651837 0.21473445
-0.11393145 0.47776547 0.25420085 0.025704592 0.21389753 0.18463627 -0.13504067 0.4161742
-0.07840604 0.36274737 -0.07741209 0.09859085 -0.20044781 0.26535928 -0.07488612 0.052127816
0.3827188 -0.05042787 -0.10132789 0.5911054 -0.3008295 -0.24845058 -0.0035371853 -0.16838418
00000000: 48c2 4fbb cdf3 233f bb35 bf3e 28d6 d73e
00000010: 3b8a ce3e be5e 663d 5cf9 babe 59e3 5b3e
00000020: e454 e9bd ad9d f43e 9d26 823e 7092 d23c
00000030: f407 5b3e 4a11 3d3e 1a48 0abe c914 d53e
00000040: 5993 a0bd 06ba b93e 3b8a 9ebd 00ea c93d
00000050: 3142 4dbe 2cdd 873e e55d 99bd fa83 553d
00000060: b8f3 c33e 748d 4ebd ff84 cfbd af52 173f
00000070: 5306 9abe d469 7ebe 1fd0 67bb e76c 2cbe

bn1.weight f4 [32]
1.7508863 1.1109757 2.6047254 0.6688998 2.141207 1.7788678 1.1917769 1.5606724
0.40145737 1.1580566 1.8086674 0.28197268 0.33493266 2.694548 2.8197694 0.42372274
2.7036514 1.5855228 0.20819049 1.4539135 0.018935844 1.5393156 1.2261107 1.4671451
2.362643 1.3160946 1.1928933 1.440335 3.3694148 1.5287558 1.6924458 1.8753874
00000000: 0b1d e03f 7434 8e3f d2b3 2640 043d 2b3f
00000010: 8909 0940 f1b1 e33f 258c 983f 1dc4 c73f
00000020: d28b cd3e 333b 943f 6a82 e73f b95e 903e
00000030: 4b7c ab3e 7973 2c40 1a77 3440 30f2 d83e
00000040: a008 2d40 69f2 ca3f e32f 553e d619 ba3f
00000050: 581f 9b3c 4b08 c53f 32f1 9c3f 69cb bb3f
00000060: 8b35 1740 ca75 a83f bab0 983f e65c b83f
00000070: 7ea4 5740 45ae c33f 10a2 d83f b20c f03f

bn1.bias f4 [32]
0.012878499 -0.28147468 0.3579264 -0.066027775 0.43778482 -0.82852316 -1.0307883 -1.1831969
-1.3221099 -0.9045442 -1.5594429 -0.8068189 -0.6683435 -0.1113787 0.131047 -0.27023625
-0.5684856 -0.9375263 -0.87652594 -1.0925996 -0.16484883 -0.032329805 -0.56192213 -0.6275966
-0.19701226 -1.0388566 -0.02851472 -0.8820529 -0.66102153 -1.1645707 -0.78812575 -0.36204094
00000000: 5700 533c 731d 90be 2142 b73e 9239 87bd
00000010: 5525 e03e 181a 54bf dff0 83bf ff72 97bf
00000020: e63a a9bf 3590 67bf d39b c7bf af8b 4ebf
00000030: 8f18 2bbf 841a e4bd 2f31 063e 685c 8abe
00000040: 4688 11bf b901 70bf 0164 60bf 4eda 8bbf
00000050: 22ce 28be 426c 04bd 21da 0fbf 2caa 20bf
00000060: 95bd 49be 41f9 84bf b497 e9bc 38ce 61bf
00000070: b538 29bf a710 95bf 9cc2 49bf 6e5d b9be

bn1.running_mean f4 [32]
-0.351085 0.78150016 -0.08793975 0.42852733 0.011713149 0.0383667 0.12624782 0.504602
0.050434317 0.9180366 0.670954 -0.03324933 0.41345775 -0.33284354 -0.7050046 0.24115592
-0.37824693 0.33687466 0.17794234 0.57109106 -0.40888467 -0.32782245 0.038306825 0.23984165
0.124349 0.60056543 0.0934956 0.9211141 -0.8275356 0.1771411 0.46385694 -0.5562509
00000000: 6ac1 b3be 6510 483f c119 b4bd ef67 db3e
00000010: 82e8 3f3c 6726 1d3d 1c47 013e 992d 013f
00000020: 3794 4e3d 7204 6b3f a4c3 2b3f 7330 08bd
00000030: bcb0 d33e 786a aabe 2e7b 34bf 94f1 763e
00000040: 95a9 c1be d67a ac3e 8436 363e 0633 123f
00000050: 5559 d1be 58d8 a7be 9ee7 1c3d 0d99 753e
00000060: b0aa fe3d a8be 193f 9f7a bf3d 22ce 6b3f
00000070: 60d9 53bf 7a64 353e a87e ed3e 7566 0ebf

bn1.running_var f4 [32]
15.55508 13.044455 19.953976 29.5547 20.270456 14.879527 18.786577 17.352797
36.678047 35.774284 29.520538 15.9203415 36.056896 22.33243 23.584497 15.320862
28.303942 12.871177 31.103752 32.045773 20.147676 33.811382 17.016523 11.340063
19.974026 20.991768 13.814651 19.61044 28.103401 21.194807 34.558914 34.302483
00000000: 9ce1 7841 16b6 5041 bea1 9f41 0770 ec41
00000010: e529 a241 8b12 6e41 e94a 9641 87d2 8a41
00000020: 52b6 1242 de18 0f42 102a ec41 b8b9 7e41
00000030: 433a 1042 d1a8 b241 0dad bc41 4022 7541
00000040: 796e e241 57f0 4d41 7cd4 f841 df2e 0042
00000050: 712e a141 db3e 0742 d721 8841 e670 3541
00000060: ceca 9f41 24ef a741 cf08 5d41 2ee2 9c41
00000070: c4d3 e041 f78e a941 543c 0a42 be35 0942

fc2.weight f4 [32, 32]
-0.5130874 -0.7487703 0.6163078 0.5084264 -0.7640472 -0.7488955 0.47975183 -1.3703427
-0.8145698 -0.13792215 -0.44811994 -0.5928388 0.4004456 -0.44413435 0.32546213 -0.92141515
0.3701998 0.7183792 -0.86144507 0.45199046 -0.6292504 -0.2632654 -0.6619214 0.49059224
0.7284571 -0.42898208 0.16175237 -0.656155 0.42504737 0.53179467 0.6323107 0.6611333
-0.76665276 0.17749406 -1.0007675 -0.38896802 -1.7602328 -0.62786645 0.49915326 -0.07088606
-0.55126745 1.057954 0.008585679 -0.21557558 -0.28205717 -0.64702743 -0.8196336 0.72717905
-0.7414596 0.9028113 -0.57308453 0.17393152 0.52199966 -0.9380443 -0.33725438 1.0022501
-0.7644128 0.6242299 0.73885703 0.9893792 -0.9798862 -1.8763466 0.33662724 -1.2446556
-0.61032665 -1.1312326 -1.1954141 -0.40946627 0.30414873 1.0444299 0.891505 1.7642921
-0.24587311 -1.1317316 0.50978017 -0.524317 0.028883502 -1.5884537 -0.6159561 0.62433
-0.82733655 -0.15306807 -0.095992126 0.12871753 -0.502968 -0.8039299 -0.637857 0.8078467
0.22631449 0.17777383 1.2719377 0.005833477 -1.3232306 -0.99850965 -0.24292673 -0.03920042
-0.5198954 0.7001625 -1.4035125 -0.75240016 0.15669101 -0.9352957 -0.16289152 0.73621005
0.53579134 -0.32605276 -0.973093 -0.608152 0.66606 0.56103325 0.6278381 -1.0484129
-0.06455735 -1.4207125 -0.24124604 -0.1140463 0.4738091 0.8060972 1.3220698 0.31441548
0.3985821 0.59087276 -0.8558812 0.024229916 -0.7098235 0.31012827 0.675302 -0.76190126
-0.39669988 0.7494283 -0.7755834 -0.95062745 -0.65358233 0.80885416 -0.56855416 1.0423757
-0.21408495 0.3839726 0.097803794 0.18584713 1.0971391 -0.95838386 -0.64471996 -0.46201083
-0.92040026 0.7291188 -0.96383405 1.0848057 0.70794123 -0.75655675 0.49710825 0.28754008
-0.5665494 0.6127803 0.53879374 0.40143466 -0.8402687 0.9126942 -0.06814712 0.36538845
-0.6878303 -0.09992962 -0.8805673 0.44005987 -1.2954215 1.410759 0.7120757 0.56804353
0.07782583 0.0013454575 1.0907321 0.17069036 -0.3425819 -1.2413571 -0.6809699 -0.13726884
-0.54515 -1.288853 -0.3084596 0.3337298 0.16676036 -1.2130771 0.3203902 0.53771347
-1.1540394 1.1893578 0.48397696 0.37071666 -1.2486864 0.34281713 0.6441721 -0.5286578
-1.1833415 -0.52782875 -0.7431438 -1.160429 -0.86153054 0.5116766 -0.27715704 0.89575714
-0.30282182 1.7132037 0.30040377 -0.21702643 0.81144077 -0.9303347 -0.96865124 -0.08042312
-0.7579326 0.39617357 -1.0832572 0.57276523 -0.45561528 0.056910742 -0.7158547 0.8333224
-0.7611647 -0.06817176 0.7234647 0.3233044 -0.9584662 0.118438214 0.1526225 -1.4274919
-0.48563853 -0.5812941 0.3662701 -0.33621502 -0.8371061 -1.3149562 -0.7339092 -0.07021763
0.11778883 -0.059016053 -0.4517906 -0.4204465 -0.29076552 0.86757725 -0.36158434 0.6589141
-0.78598297 0.58023113 -0.9047093 0.31828636 -0.34588748 -0.02910891 -0.6956419 0.2850767
-0.90699923 -0.622353 -0.20924158 -0.96327233 -0.30113715 -0.49589092 0.028764352 -0.6874726
00000000: b259 03bf 69af 3fbf 59c6 1d3f 3c28 023f
00000010: 9998 43bf 9eb7 3fbf 08a2 f53e 6467 afbf
00000020: a587 50bf 773b 0dbe fa6f e5be 49c4 17bf
00000030: 3507 cd3e 9465 e3be f9a2 a63e dde1 6bbf
00000040: d48a bd3e b3e7 373f aa87 5cbf 4b6b e73e
00000050: 8e16 21bf b9ca 86be ae73 29bf e82e fb3e
00000060: 2a7c 3a3f 8aa3 dbbe 6aa2 253e c6f9 27bf
00000070: cf9f d93e b223 083f 1ddf 213f 0840 293f
00000080: 5b43 44bf 01c1 353e 2619 80bf d126 c7be
00000090: 4f4f e1bf dbbb 20bf 0491 ff3e b62c 91bd
000000a0: dd1f 0dbf 096b 873f f3aa 0c3c d8bf 5cbe
000000b0: cc69 90be 97a3 25bf 82d3 51bf 6828 3a3f
000000c0: 4cd0 3dbf a41e 673f abb5 12bf 1b1b 323e
000000d0: c5a1 053f ac23 70bf 9bac acbe bb49 803f
000000e0: 8fb0 43bf 88cd 1f3f bc25 3d3f f547 7d3f
000000f0: d2d9 7abf 202c f0bf 685a ac3e e050 9fbf
00000100: 5e3e 1cbf 3bcc 90bf 5403 99bf 90a5 d1be
00000110: 62b9 9b3e e1af 853f ac39 643f 53d4 e13f
00000120: 29c6 7bbe 95dc 90bf f480 023f a439 06bf
00000130: 189d ec3c 7352 cbbf 4daf 1dbf 17d4 1f3f
00000140: 54cc 53bf e0bd 1cbe 8597 c4bd 87ce 033e
00000150: 83c2 00bf 5ace 4dbf 994a 23bf 0bcf 4e3f
00000160: fcbe 673e 580a 363e dbce a23f c026 bf3b
00000170: 9f5f a9bf 549e 7fbf c9c1 78be 9f90 20bd
00000180: dd17 05bf d93d 333f 4ca6 b3bf 4c9d 40bf
00000190: 9c73 203e 8a6f 6fbf 09cd 26be 4378 3c3f
000001a0: 9f29 093f 63f0 a6be 9f1c 79bf d9af 1bbf
000001b0: e882 2a3f e09f 0f3f ffb9 203f 6532 86bf
000001c0: a536 84bd e8d9 b5bf 3409 77be 1b91 e9bd
000001d0: 1b97 f23e 635c 4e3f 9539 a93f 11fb a03e
000001e0: f412 cc3e 7043 173f 081b 5bbf d17d c63c
000001f0: feb6 35bf 22c9 9e3e 98e0 2c3f f60b 43bf
00000200: 3f1c cbbe 88da 3f3f a28c 46bf 525c 73bf
00000210: 2c51 27bf 1111 4f3f c48c 11bf 916c 853f
00000220: 1639 5bbe 0e98 c43e 5b4d c83d b64e 3e3e
00000230: 0e6f 8c3f a558 75bf 5e0c 25bf af8c ecbe
00000240: 5a9f 6bbf 88a7 3a3f d4bd 76bf eada 8a3f
00000250: a33b 353f b4ad 41bf f984 fe3e 7438 933e
00000260: 6209 11bf 2bdf 1c3f 63ee 093f d888 cd3e
00000270: d91b 57bf 54a6 693f b890 8bbd 3214 bb3e
00000280: a615 30bf e7a7 ccbd dc6c 61bf 874f e13e
00000290: 5fd0 a5bf c093 b43f 984a 363f 4d6b 113f
000002a0: 2663 9f3d 105a b03a 1c9d 8b3f 74c9 2e3e
000002b0: e566 afbe cae4 9ebf 0b54 2ebf 3490 0cbe
000002c0: f38e 0bbf 23f9 a4bf 6bee 9dbe a2de aa3e
000002d0: 3ac3 2a3e 1c46 9bbf 2f0a a43e 97a7 093f
000002e0: 90b7 93bf e03c 983f d4cb f73e 93ce bd3e
000002f0: f5d4 9fbf ba85 af3e 76e8 243f 1e56 07bf
00000300: bc77 97bf c91f 07bf ac3e 3ebf f088 94bf
00000310: 448d 5cbf 3dfd 023f 87e7 8dbe 5750 653f
00000320: 760b 9bbe 424a db3f 86ce 993e 2d3c 5ebe
00000330: 95ba 4f3f 6a2a 6ebf 87f9 77bf e0b4 a4bd
00000340: df07 42bf 43d7 ca3e 2ca8 8abf bea0 123f
00000350: 6846 e9be 3d1b 693d 4142 37bf 9e54 553f
00000360: b1db 42bf a39d 8bbd fc34 393f 2888 a53e
00000370: 0a5e 75bf bc8f f23d 1349 1c3e 0eb8 b6bf
00000380: 9da5 f8be b1cf 14bf c187 bb3e 6024 acbe
00000390: 964c 56bf 7c50 a8bf 79e1 3bbf 43ce 8fbd
000003a0: 453b f13d d1ba 71bd 1951 e7be c344 d7be
000003b0: 38df 94be 8b19 5e3f 9521 b9be 98ae 283f
000003c0: 2e36 49bf 078a 143f 079b 67bf 6ef6 a23e
000003d0: 2a18 b1be cf75 eebc 9615 32bf 93f5 913e
000003e0: 1a31 68bf 8752 1fbf 6d43 56be 0499 76bf
000003f0: a62e 9abe 6ae5 fdbe 38a3 eb3c 34fe 2fbf

fc2.bias f4 [32]
0.18796542 -0.5326741 -0.07907952 -0.19249327 -0.10015069 0.032146282 0.054663524 0.53585315
0.054016232 -0.34600478 0.0009895813 0.22612965 0.1764818 -0.46360046 0.14663246 0.21187998
-0.056023482 -0.38981164 -0.07508278 -0.35180825 -0.1331515 0.08688886 -0.06522515 0.023234522
0.04636116 0.119035974 -0.1314523 0.29175693 -0.028473014 0.34801984 0.015074555 0.2114237
00000000: 027a 403e 545d 08bf 72f4 a1bd f51c 45be
00000010: ce1b cdbd d2ab 033d dce6 5f3d ac2d 093f
00000020: 2040 5d3d 8a27 b1be d7b4 813a 888e 673e
00000030: a5b7 343e 0a5d edbe d226 163e 11f7 583e
00000040: e178 65bd 6495 c7be 00c5 99bd 3620 b4be
00000050: de58 08be c9f2 b13d c394 85bd 5356 be3c
00000060: 33e5 3d3d 22c9 f33d 6f9b 06be 2a61 953e
00000070: 3d40 e9bc a82f b23e 44fb 763c 747f 583e

bn2.weight f4 [32]
-0.033244994 0.22020136 0.15508993 -0.19001912 0.4543618 0.6273957 0.68591285 0.2501477
0.10323523 0.354404 -0.090200715 -0.013130567 -0.12414014 0.56547534 0.73650366 0.036425937
0.50859535 0.51372445 -0.73548615 0.7307642 0.53888524 0.71596825 0.54374593 0.6204224
0.06766395 0.4003506 -0.041686922 0.10576497 0.5580064 0.3382364 0.12382857 0.7633495
00000000: e72b 08bd 777c 613e e5cf 1e3e 5f94 42be
00000010: 1ca2 e83e 019d 203f fc97 2f3f 5c13 803e
00000020: fe6c d33d 7174 b53e 27bb b8bd 9721 57bc
00000030: 303d febd fec2 103f 818b 3c3f 5d33 153d
00000040: 4e33 023f 7283 033f d248 3cbf 5d13 3b3f
00000050: 62f4 093f b249 373f ef32 0b3f 01d4 1e3f
00000060: 6693 8a3d c1fa cc3e e8bf 2abd 4e9b d83d
00000070: 82d9 0e3f 522d ad3e d599 fd3d df6a 433f

bn2.bias f4 [32]
-0.8131139 -0.47055265 -0.4544164 -0.9466203 -0.02551263 -0.2805116 0.05556075 -0.28416172
-0.46143338 0.18047382 -0.93487495 -0.65535355 -0.94738686 -0.042024795 -0.033658743 -0.30417973
-0.1177865 0.09806827 -0.3888596 0.15388183 -0.08639251 -0.27520764 -0.13379976 -0.16072637
-0.6834707 -0.13687599 -0.3642877 -0.58877426 -0.02481214 -0.21736988 -0.30403444 -0.039500184
00000000: 3c28 50bf 47ec f0be 44a9 e8be b555 72bf
00000010: ddff d0bc 379f 8fbe ab93 633d a57d 91be
00000020: ff40 ecbe 21ce 383e f753 6fbf 40c5 27bf
00000030: f287 72bf 3122 2cbd c0dd 09bd 72bd 9bbe
00000040: 0c3a f1bd 04d8 c83d 9b18 c7be 3393 1d3e
00000050: 8eee b0bd 04e8 8cbe ce02 09be 7495 24be
00000060: f0f7 2ebf 3829 0cbe eb83 babe e9b9 16bf
00000070: d442 cbbc 3696 5ebe 67aa 9bbe f2ca 21bd

bn2.running_mean f4 [32]
1.2437148 -8.779694 -5.670892 -1.69554 -4.3802967 -7.599945 -7.2097654 -3.4498558
-8.006039 -6.627589 2.594854 1.2745388 -1.3027345 -5.5792847 -9.061772 -2.6710308
-6.168934 -5.252314 -8.287748 -9.734001 -4.9990497 -9.790251 -8.947786 -5.9483852
-3.339994 -6.0810833 -4.9750853 -4.8218365 -6.128403 -5.4439273 -7.394293 -7.2012544
00000000: 0c32 9f3f a079 0cc1 f277 b5c0 7407 d9bf
00000010: 642b 8cc0 c032 f3c0 66b6 e6c0 70ca 5cc0
00000020: bc18 00c1 3615 d4c0 1712 2640 1624 a33f
00000030: 01c0 a6bf 8089 b2c0 05fd 10c1 2bf2 2ac0
00000040: e867 c5c0 f512 a8c0 9e9a 04c1 78be 1bc1
00000050: 37f8 9fc0 dea4 1cc1 222a 0fc1 2c59 bec0
00000060: 76c2 55c0 3c98 c2c0 e633 9fc0 7c4c 9ac0
00000070: e11b c4c0 a734 aec0 0c9e ecc0 ad70 e6c0

bn2.running_var f4 [32]
33.068905 206.42691 158.75558 56.457428 140.16583 243.22617 189.62646 43.31853
223.75092 178.32286 60.71523 43.695328 39.197144 149.50891 321.01944 31.749086
214.73302 206.09694 293.14816 384.42496 173.73894 318.0133 291.898 128.2719
54.58836 252.80136 185.50247 53.18601 280.12347 161.16747 87.18787 215.23009
00000000: 8f46 0442 4a6d 4e43 6ec1 1e43 68d4 6142
00000010: 742a 0c43 e639 7343 60a0 3d43 2d46 2d42
00000020: 3cc0 5f43 a752 3243 65dc 7242 04c8 2e42
00000030: e0c9 1c42 4882 1543 7d82 a043 21fe fd41
00000040: a7bb 5643 d118 4e43 f792 9243 6536 c043
00000050: 2bbd 2d43 b401 9f43 f2f2 9143 9b45 0043
00000060: 7b5a 5a42 26cd 7c43 a280 3943 79be 5442
00000070: ce0f 8c43 df2a 2143 3060 ae42 e73a 5743

fc3.weight f4 [1, 32]
-0.29999793 0.10970507 -0.011676181 0.036118332 -0.21396415 -0.14443351 -0.22616644 0.052781075
0.14465329 -0.10499583 -0.30477253 -0.29223055 -0.21578133 -0.16603114 -0.2030326 -0.051331487
-0.1835724 -0.19208764 0.31915918 -0.2912819 -0.06674343 -0.17335463 -0.18623407 -0.09956859
0.07761555 -0.043702286 0.08026288 -0.12268762 -0.20826866 -0.04215533 -0.039200682 -0.176952
00000000: 5499 99be 0dad e03d 744d 3fbc d1f0 133d
00000010: 6b19 5bbe 61e6 13be 2d98 67be f830 583d
00000020: fe1f 143e 0e08 d7bd 250b 9cbe 3e9f 95be
00000030: c8f5 5cbe 1104 2abe c7e7 4fbe f740 52bd
00000040: 67fa 3bbe 9fb2 44be d568 a33e e722 95be
00000050: c8b0 88bd e083 31be 25b4 3ebe 9eea cbbd
00000060: e7f4 9e3d 2b01 33bd dd60 a43d a643 fbbd
00000070: 6144 55be 11ab 2cbd e590 20bd e832 35be
